…
rage': 'None', 'train_freq': "TrainFreq(frequency=4, unit=<TrainFrequencyUnit.STEP: 'step'>)", 'actor': 'None', 'replay_buffer': '<stable_baselines3.common.buffers.ReplayBuffer object at 0x123069d90>', 'use_sde_at_warmup': 'False', 'exploration_initial_eps': 1.0, 'exploration_final_eps': 0.05, 'exploration_fraction': 0.1, 'target_update_interval': 10000, '_n_calls': 0, 'max_grad_norm': 10, 'exploration_rate': 0.0, 'policy': 'DQNPolicy(\n  (q_net): QNetwork(\n    (features_extractor): FlattenExtractor(\n      (flatten): Flatten(start_dim=1, end_dim=-1)\n    )\n    (q_net): Sequential(\n      (0): Linear(in_features=17400, out_features=64, bias=True)\n      (1): ReLU()\n      (2): Linear(in_features=64, out_features=64, bias=True)\n      (3): ReLU()\n      (4): Linear(in_features=64, out_features=17, bias=True)\n    )\n  )\n  (q_net_target): QNetwork(\n    (features_extractor): FlattenExtractor(\n      (flatten): Flatten(start_dim=1, end_dim=-1)\n    )\n    (q_net): Sequential(\n      (0): Linear(in_features=17400, out_features=64, bias=True)\n      (1): ReLU()\n      (2): Linear(in_features=64, out_features=64, bias=True)\n      (3): ReLU()\n      (4): Linear(in_features=64, out_features=17, bias=True)\n    )\n  )\n)', 'q_net': 'QNetwork(\n  (features_extractor): FlattenExtractor(\n    (flatten): Flatten(start_dim=1, end_dim=-1)\n  )\n  (q_net): Sequential(\n    (0): Linear(in_features=17400, out_features=64, bias=True)\n    (1): ReLU()\n    (2): Linear(in_features=64, out_features=64, bias=True)\n    (3): ReLU()\n    (4): Linear(in_features=64, out_features=17, bias=True)\n  )\n)', 'q_net_target': 'QNetwork(\n  (features_extractor): FlattenExtractor(\n    (flatten): Flatten(start_dim=1, end_dim=-1)\n  )\n  (q_net): Sequential(\n    (0): Linear(in_features=17400, out_features=64, bias=True)\n    (1): ReLU()\n    (2): Linear(in_features=64, out_features=64, bias=True)\n    (3): ReLU()\n    (4): Linear(in_features=64, out_features=17, bias=True)\n  )\n)', 'batch_norm_stats': '[]', 'batch_norm_stats_target': '[]', 'exploration_schedule': '<function get_linear_fn.<locals>.func at 0x123121ca0>'}
2023-05-21 12:18:06,476 INFO    MainThread:11185 [sb3.py:save_model():153] Saving model checkpoint to models/40vfiawn/model.zip
2023-05-21 12:18:06,477 INFO    MainThread:11185 [wandb_run.py:_finish():1893] finishing run mrtm/thesis/40vfiawn
…
